app/src/main/assets/model.tflite (tflite, 445308 bytes, 8 tensors)

arith.constant f4 [50, 64]
000000 92 dc b8 be 2e 52 a1 be 03 11 04 3e 3c ad 26 3e
       -0.36105782 -0.3150801 0.12897114 0.16277021
000010 0d 79 3c be 47 65 83 be 15 aa c2 be a4 4f 15 3d
       -0.18405552 -0.25663206 -0.38020387 0.036452904
000020 34 0d b8 be 1c ff 8e b9 39 65 12 be 1b cd 25 3e
       -0.35947573 -0.00027274422 -0.14296426 0.16191523
000030 ae af 09 3e ff b9 81 3d c0 db 93 3c 85 c2 b1 3c
       0.13445923 0.06334304 0.01804912 0.0216992
000040 54 a1 8c 3d 73 f6 61 3d ed 23 c5 3d b9 e9 82 bb
       0.068667084 0.055166673 0.09625993 -0.003995147
000050 9c bf 36 be 33 c1 9f be 22 bd 8d be 7e ec 8f be
       -0.1784653 -0.31202087 -0.2768336 -0.28110117
000060 f1 a2 71 3d a4 d4 b1 3d 27 2e 92 bc fc b0 c5 bd
       0.058993284 0.08683136 -0.017844273 -0.09652898
000070 b9 a2 73 be 0e 68 b5 bd 6d fa 6a bd 38 4a 64 3d
       -0.23792543 -0.088577375 -0.05736773 0.055734843
000080 58 8a 8c be d5 02 ca be 12 4f 5b 3d 70 ab e5 be
       -0.27449298 -0.39455286 0.053542204 -0.4485736
000090 e3 67 8f 3d a7 88 01 bd 05 ca 9b be b1 28 d9 be
       0.07002237 -0.031624462 -0.30427566 -0.42413858
0000a0 15 ba 83 3d 8a fa fe bc 82 9b 45 3d 0c a0 13 3e
       0.06431977 -0.031125326 0.048244007 0.14416522
0000b0 ab f4 a0 bd 08 19 39 be df 2b 8f 3e b1 ae 75 bc
       -0.07859167 -0.18075955 0.27963158 -0.014995263
0000c0 77 ba 0a 3e eb 34 47 3d eb c5 44 3e 4b e4 42 3e
       0.13547693 0.04863445 0.19216125 0.190324
0000d0 32 15 2f bd 37 a6 9a be c4 b6 a4 be d3 1b d7 bd
       -0.042744823 -0.30204937 -0.3217069 -0.10503354
0000e0 46 20 1f 3e 43 6f 9a 3d 4d c0 a8 bd 62 05 72 be
       0.15539655 0.07540753 -0.082398035 -0.23634866
0000f0 77 4e 42 3e 62 8e 48 be 67 ed e3 bd a3 f8 66 3e
       0.18975244 -0.19585565 -0.11129265 0.22555785
000100 b2 5a 0b be 7b 79 1c be 23 9d ed bd cc 8b 6e be
       -0.13608816 -0.15280716 -0.11602237 -0.23295516
000110 c3 3a bd 3d 82 9d 08 3b c1 6b 21 bf 94 ec d9 bd
       0.092397235 0.0020845835 -0.63055044 -0.10640827
000120 ed f9 57 be 89 48 13 3e 73 b4 8c 3d 52 5d ce 3d
       -0.21091433 0.14383139 0.068703555 0.10076393
000130 74 7d 73 be d4 80 70 be 38 96 9f be 91 ca 82 3d
       -0.23778325 -0.23486644 -0.31169295 0.06386293
000140 49 b0 2d 3e 26 38 05 bf 74 86 22 3e 3d 69 50 bf
       0.16961779 -0.520388 0.15871602 -0.8141058
000150 80 e2 76 be 71 54 1b be 1b 77 51 be 56 f2 df bd
       -0.2410984 -0.1516893 -0.20455591 -0.10934894
000160 06 28 1b 3e 3a a9 f2 bc 49 71 89 be 5c ef 30 3e
       0.15151986 -0.02962171 -0.26844242 0.17278808
000170 9d 8e 79 be 82 ce ab bd 18 1b e6 3c 71 19 bd 3d
       -0.24370809 -0.083889976 0.028089091 0.09233368
000180 80 aa 31 be 77 8e 04 bf 88 ba 70 3d 3b 35 29 bf
       -0.17350197 -0.51779884 0.05877164 -0.6609685
000190 30 4a 5c be 99 1a 80 bd df 8b 2c be 77 e7 c3 be
       -0.21512675 -0.06255073 -0.16850232 -0.3826253
0001a0 ea c3 93 3d 9c fe 54 3d ce c2 63 3e 4a 2d d3 bc
       0.07215102 0.052000627 0.22242281 -0.025778431
0001b0 27 07 3a 3e 77 b1 3c 3e cb fa 37 3e 97 96 fc bd
       0.18166791 0.18427072 0.17966764 -0.1233341
0001c0 ff a3 58 bd f5 be 2f 3e 2d 86 73 3e 83 46 fe bd
       -0.052890774 0.17162688 0.23781653 -0.12415793
0001d0 83 0a 0c be 73 40 f8 be 97 ac 8f be 33 87 3f 3e
       -0.13675885 -0.4848667 -0.28061363 0.18703918
0001e0 42 8b 60 3e 46 3b 24 3e cc 73 82 bd 94 bb ab bc
       0.21928123 0.16038236 -0.06369743 -0.020963468
0001f0 0d 21 5b be bb e7 b3 be d2 03 1e 3e a2 b4 bb 3d
       -0.21399327 -0.35137734 0.15431145 0.09165312
000200 02 32 83 3c 6a d5 f5 3d c4 ef 27 3d d7 9f 21 bd
       0.016015057 0.12003596 0.041000143 -0.039459076
000210 1d 7b 38 3e a2 47 ee bd d2 86 a9 be 97 cc 05 bd
       0.18015714 -0.116347566 -0.33110672 -0.032665815
000220 5f ca 0b bd c6 a5 4d be c1 58 82 bd 7e f0 db be
       -0.034128543 -0.20082769 -0.06364585 -0.42956918
000230 13 f8 b3 3d 96 80 69 bb 4c ba 42 be 7d 66 ca bd
       0.08787551 -0.0035629622 -0.19016379 -0.09882829
000240 27 a8 43 3e 17 a6 7d 3b 1a 05 a9 bd 43 4c c5 3c
       0.19107114 0.0038703734 -0.08252926 0.024084216
000250 b2 80 85 3e 4c e2 76 be 72 e0 66 be 9e 5b e7 3c
       0.2607475 -0.24109763 -0.22546557 0.028241929
000260 49 eb 90 3c b9 87 04 3e 5f 76 5a be 69 68 10 3e
       0.017690318 0.12942399 -0.21334217 0.1410233
000270 e3 d6 53 bd 60 4f d7 be 2d ad c4 3c 57 f6 24 3d
       -0.051718604 -0.42052746 0.024008358 0.04027399
000280 4a 69 54 be dc c2 a9 3d 1a 99 d3 3b f2 95 78 be
       -0.2074329 0.082891196 0.00645746 -0.2427595
000290 2e 38 87 be 1d 77 1f 3e d6 f1 57 3e 22 7c 0b 3d
       -0.2641005 0.15572782 0.21088347 0.03405393
0002a0 b4 8f ee 3d d8 4e b0 bd b9 5e 45 be 5c 48 dc be
       0.11648503 -0.08608788 -0.19274415 -0.43023956
0002b0 9b 8c 25 3e d9 72 c6 bd 6d a7 4f be 92 f8 0d be
       0.16166918 -0.09689874 -0.20278712 -0.13864353
0002c0 ef a4 06 be 32 06 3b 3e 67 f0 57 bc 5c e6 23 be
       -0.13148855 0.18264082 -0.013179875 -0.16005844
0002d0 50 fc 69 bd 31 63 b6 be 53 7e 01 3e dc 15 91 be
       -0.05712539 -0.35622552 0.12645845 -0.2833699
0002e0 2f db 90 be 05 fd 9d be 6e c2 85 bd b6 2b 58 be
       -0.28292224 -0.308571 -0.06531225 -0.21110424
0002f0 6d bc 85 be 6a 84 99 3e be c2 92 be b5 1f 10 be
       -0.2612032 0.29983836 -0.28664201 -0.14074595
000300 78 b3 af be 30 e5 f7 bd 3f b1 2a 3d 75 ae 49 be
       -0.3431661 -0.12104261 0.04167294 -0.19695456
000310 d9 f2 1d 3d e5 fd 38 3e 2f fd 65 be e4 5e 0a be
       0.038561676 0.18065603 -0.22459863 -0.1351276
000320 ac ff 83 be fa c0 d4 bc b4 6d 96 3c 70 25 bc be
       -0.25781 -0.025970925 0.018362857 -0.36747313
000330 fc 2c 94 be e4 49 a6 be 2f 92 35 3e 1e 8f e3 bd
       -0.2894057 -0.3247825 0.17731546 -0.11111282
000340 d5 f2 70 be bf 57 36 be ad 8a 37 3e 1f ce 2a be
       -0.23530133 -0.1780691 0.17923994 -0.16680191
000350 ae 31 7c 3d 54 1d 24 bf 6a 3e a2 bd d6 41 23 be
       0.061570816 -0.6410725 -0.07922061 -0.15943083
000360 95 4f 26 be 70 c5 4c be 3c 72 0c be 87 bc 3c 3e
       -0.16241296 -0.19997191 -0.13715452 0.18431292
000370 43 c8 8c bc ee 43 8a 3d e0 54 cc 3d 83 fd 1c 3c
       -0.017185336 0.06751238 0.09977126 0.009581926
000380 b7 eb f8 bc d7 70 0c bc 64 e9 0c 3e d8 c8 1d bf
       -0.030385835 -0.008571825 0.13760906 -0.6163459
000390 1b 36 4c bd c8 55 21 bd b7 6e b5 3c e8 0a 62 3e
       -0.049856286 -0.039388448 0.02214752 0.22074473
0003a0 12 d4 c4 3d 2b cd e8 be 63 de 9d be d8 75 74 3e
       0.09610762 -0.4546903 -0.3083373 0.23873079
0003b0 ab ea 83 3d 67 3d 62 3b b3 f5 d5 3d 22 30 9c be
       0.06441244 0.0034521462 0.10447254 -0.30505472
0003c0 97 0d ee 3d 6e ad f8 be 47 31 9d be e5 1d 59 be
       0.11623686 -0.48569816 -0.30701658 -0.2120281
0003d0 99 50 6b bc 82 e3 59 be 4e 3c 1d 3c a7 1c 04 be
       -0.014362478 -0.21278194 0.009596897 -0.12901555
0003e0 f1 0b e7 be 7c b9 80 3d 13 01 9d 3c 0e 72 28 3e
       -0.45126298 0.06285378 0.019165551 0.16449758
0003f0 67 39 8d 3e f5 a4 5a 3e b7 3d db be 40 2a 8a be
       0.27582857 0.21351989 -0.42820522 -0.2698536

arith.constant1 f4 [64, 128]
000000 5f 52 f4 3d 91 1a b6 bc 2c ce 93 be 6e 98 d5 3d
       0.119297735 -0.022229465 -0.28868234 0.10429464
000010 e7 19 51 3c 6f 28 be bd b5 4f f4 bd d1 4b 9b bd
       0.012762523 -0.09285056 -0.119292654 -0.0758282
000020 e4 c3 0e 3e a8 51 de 3d b3 66 c8 3d 1f d3 c5 3e
       0.13941914 0.108554184 0.09785213 0.38637635
000030 73 35 13 3e ef 64 0b 3e 69 20 04 3e 97 ee 6a be
       0.14375858 0.13612722 0.12902988 -0.22942577
000040 b0 0a 42 be 6a ff 79 bd 05 57 a0 bd 3e ec 86 3e
       -0.1894939 -0.061034597 -0.07829098 0.26352113
000050 c8 b5 4a 3e c9 b6 c0 bd 6f 23 3a be 8b ca e8 3c
       0.19795907 -0.094098635 -0.1817758 0.028416893
000060 2e 43 96 bd 89 1c 59 3e 8c 41 93 3d 27 3b 37 3e
       -0.07337032 0.21202292 0.071902364 0.17893659
000070 92 41 ab 3c da 1e 97 be f1 50 a5 3d f0 1b 9f be
       0.02090529 -0.29515725 0.08072079 -0.31076002
000080 95 35 e3 3d 92 4e 59 be 41 73 88 3d 18 7a 07 be
       0.11094204 -0.21221378 0.06662608 -0.13230169
000090 61 76 c2 bd 90 c7 9a bd f8 c7 44 3d 80 a1 10 3e
       -0.09495235 -0.07557595 0.048042268 0.14124107
0000a0 55 a2 09 3b e1 a2 70 bc e4 ab 2b be 28 f3 c9 3c
       0.0021001298 -0.014687271 -0.1676479 0.024652079
0000b0 16 fb 90 3e a9 d7 32 bd 47 88 86 3e 73 0d 1e 3c
       0.28316563 -0.0436627 0.26275846 0.009646761
0000c0 71 ec c4 bd 49 77 20 3e b0 b3 87 bd a8 6e cd bd
       -0.0961541 0.15670504 -0.066260695 -0.10030872
0000d0 a7 d6 ae 3b 11 6a 4e 3d 44 1f d1 3d c8 a0 2c be
       0.005335647 0.05039412 0.102110416 -0.16858208
0000e0 ae 88 39 3e 50 06 2f be 84 e5 99 3d fe 75 b6 3d
       0.18118545 -0.17092252 0.0751448 0.08909224
0000f0 01 80 0c be c7 bb 50 3d 8b 43 99 be 3d e4 25 3e
       -0.13720705 0.05096033 -0.29934344 0.16200347
000100 54 6d 13 3e 24 d2 73 bd ba 7f c1 3d 07 d6 c4 3d
       0.14397174 -0.059526578 0.0944819 0.09611135
000110 5b 6f a9 be 2e 9d 4d bd 28 6e 67 3d fd 30 6c b9
       -0.3309277 -0.050198726 0.056501538 -0.00022524963
000120 e7 04 72 bd 05 eb b4 bd 71 55 4c bd 8a 26 eb be
       -0.059086706 -0.08833889 -0.04988617 -0.4592784
000130 8a b3 cf 3d 57 cf b1 bd 0a d3 a8 bc c5 65 88 be
       0.10141666 -0.08682125 -0.020608444 -0.26640144
000140 55 58 f6 3d 12 b8 da 3d 08 35 40 be 7c 47 e6 bd
       0.12028567 0.1067964 -0.1877023 -0.11244103
000150 c1 4e c5 bd 14 49 7f bd 97 d6 01 3e 03 a6 ca bd
       -0.09634162 -0.062325552 0.12679516 -0.098949455
000160 82 62 66 3d a7 de 9e 3d de e8 82 3d 40 e6 02 3e
       0.056246288 0.07757311 0.06392072 0.12783146
000170 f5 53 8f bd 5d 5b 90 bd 23 9c 9b bd 7a b5 47 3d
       -0.069984354 -0.07048676 -0.0759814 0.048757054
000180 bc 3d 45 be c1 0c 72 bd f5 8a 87 be 52 6f fc bd
       -0.19261831 -0.059094194 -0.26473203 -0.1232592
000190 b4 96 19 3e 82 bd 90 ba ad 3e 41 3e 3e 27 4d 3e
       0.14998895 -0.0011042806 0.18871565 0.20034501
0001a0 a8 8e ee 3c ed b2 0f be 54 8d 62 3e 24 7f a4 3e
       0.029120758 -0.14033099 0.22124225 0.3212825
0001b0 ba b4 7c bd 73 ce f8 bd 75 a7 91 bd 97 f6 ae bd
       -0.06169579 -0.12148752 -0.07112018 -0.08543127
0001c0 b0 fc 21 3d 73 1e b3 bd 3a b9 7a bd 89 04 79 be
       0.039547622 -0.08746042 -0.061211802 -0.24318136
0001d0 7b 19 0f 3e b0 d6 17 bd be 06 44 3e 54 1d 33 bd
       0.13974564 -0.037069976 0.19143197 -0.04372914
0001e0 dc a8 13 be 7b c5 10 3d 5f db 43 3e 03 59 d9 bd
       -0.14419883 0.035344582 0.19126652 -0.10612681
0001f0 dd 39 3f 3d 96 28 ff bd 5a 0e ef bd cd e7 1d 3e
       0.046686042 -0.12458913 -0.11672659 0.15420456
000200 9f be d1 3d 55 29 4d 3e 36 a6 84 bd 86 54 36 bd
       0.10241436 0.20035298 -0.06477015 -0.0445142
000210 01 ee ef bd ec ef c8 3e 3b e7 b2 bc cb 66 fe bd
       -0.117153175 0.39245546 -0.021838775 -0.1242195
000220 ea be b1 3b 1f 0a 27 3e 71 15 94 bd 67 0e b5 3d
       0.00542437 0.16312455 -0.07230652 0.08840638
000230 7a e4 2a 3e 2f 90 ba bd ce 2f 32 3e ab 2c c8 3d
       0.1668872 -0.09109532 0.17401049 0.09774145
000240 9e 7c 79 be 54 1c 0a be c7 36 3c bd 16 07 3c bd
       -0.24363944 -0.13487369 -0.045950677 -0.045905195
000250 59 7e df bc b9 80 27 3e d5 e8 7c 3d 8b 79 06 be
       -0.027281927 0.16357698 0.061745483 -0.13132302
000260 ad b0 79 bc 62 05 21 bd 9b b2 fc 3c 13 75 08 3e
       -0.015239877 -0.039311774 0.030846884 0.1332591
000270 7c ed d8 3d c7 7b e6 3d 63 d4 12 3e b4 a3 7c bc
       0.105921715 0.112540774 0.14338832 -0.015419889
000280 c5 d1 e4 bd 2e b3 ee 3d 9f 35 58 3e 30 ff 2d 3d
       -0.11172823 0.116552696 0.21114205 0.042479694
000290 2e b1 81 3d 2f ae 29 3d 61 65 11 be e8 5c 73 bd
       0.063326225 0.04142588 -0.14198829 -0.059414774
0002a0 7e b8 d1 bc 8a 56 ef 3d 70 73 19 be ad e6 1d be
       -0.025600668 0.11686428 -0.14985442 -0.15420027
0002b0 20 dc 1e bb b5 53 b9 bd df 5f e4 bd d5 15 ea 3d
       -0.0024240091 -0.09049169 -0.111510985 0.114299454
0002c0 23 35 04 be 5b 0e 56 3d a6 26 97 be a9 98 e6 bd
       -0.12910895 0.052259784 -0.29521674 -0.11259586
0002d0 aa 07 00 be 30 5b 79 3c 58 0c 90 bc a7 e9 6f be
       -0.12502924 0.015219495 -0.017584011 -0.23428975
0002e0 d7 df 02 bd c4 51 18 bd 67 dd 23 3d ac 5b 77 be
       -0.03195175 -0.037187353 0.040006068 -0.24156064
0002f0 98 4d c2 bc 76 51 ca bd 9c 9e db 3d 58 a3 72 3e
       -0.02371864 -0.09878819 0.10723612 0.23695123
000300 99 9f 94 3c a0 a3 95 3d 76 e8 23 3e 5e e5 c2 bd
       0.018142508 0.073065996 0.16006646 -0.095164046
000310 10 56 1e 3e c2 e6 89 bd 6d 7a d9 bd c6 28 15 3e
       0.15462518 -0.06733467 -0.10619054 0.14566335
000320 d5 8e 30 3e dc 04 89 3e 19 39 b4 bd a2 25 a8 be
       0.17241986 0.2676152 -0.08799953 -0.32841212
000330 c6 0e f6 bd e1 7b c1 be e6 23 13 be c3 d3 18 bc
       -0.120145366 -0.37789825 -0.14369163 -0.009327832
000340 97 e4 2d 3d 6f fe bc 3d cb 53 77 3d ba 36 03 bd
       0.04245433 0.09228217 0.060382646 -0.032034613
000350 a0 d4 19 be 97 21 c7 bd cd f1 25 3d 84 fe 81 3e
       -0.15022516 -0.09723204 0.040513802 0.25389493
000360 b0 17 09 bd 24 4b 13 bd 58 d5 0f 3e 22 44 ce 3e
       -0.033469856 -0.03596033 0.14046228 0.40286356
000370 65 85 15 be f1 51 00 3e 0e 9e 43 3e 6d ee b1 3c
       -0.14601667 0.12531258 0.19103262 0.021720136
000380 3d ba 56 be e9 22 92 3e b0 42 16 3e 48 9f ab 3d
       -0.20969482 0.2854226 0.14673877 0.0837999
000390 79 a6 1b be 88 f8 5c ba 0c ab cf bd 2c 28 36 3e
       -0.15200223 -0.0008429368 -0.101400465 0.17788762
0003a0 c9 c9 8e 3d 98 88 f5 3d 5d 40 6a 3e 15 a1 e3 3d
       0.06972081 0.11988944 0.22876115 0.11114708
0003b0 5b b6 4b 3d 7f f9 7f bd 94 bc 15 be 5f 12 0a bd
       0.049734455 -0.062493797 -0.14622718 -0.033708926
0003c0 34 c7 8a bd 70 6d 2c be 22 af af bd 81 8d a6 3d
       -0.06776276 -0.16838622 -0.08578326 0.081324585
0003d0 fc fd d1 bd e3 0b 2f 3e 00 dd 06 3e 3f 50 b7 3d
       -0.10253522 0.17094378 0.13170242 0.089508526
0003e0 7a e9 36 3e 9d 26 d5 bd 7e 1c 05 be fc 21 a8 bd
       0.17862502 -0.104077555 -0.1299915 -0.08209607
0003f0 dc e2 da bd da 3e a1 3d 8a ff b9 bd 75 2c 22 be
       -0.10687801 0.07873316 -0.09081943 -0.15837272

arith.constant2 f4 [128, 256]
000000 2c 9c a6 bd ce 41 93 bd 6d 0e 11 bd ef ff 98 bd
       -0.08135256 -0.071902856 -0.035414148 -0.074706905
000010 75 f8 10 bd 99 e0 34 3e 4f f9 18 3e 03 b8 13 bd
       -0.035393197 0.17663802 0.14938854 -0.03606416
000020 22 e1 98 3c 06 f5 04 3e 91 8b c1 3c 50 3e 8f bd
       0.01866204 0.12984094 0.02362612 -0.06994307
000030 b8 85 36 3d a1 c5 68 3c ee 35 86 3d e9 a7 93 3d
       0.044561118 0.014207275 0.06553255 0.07209761
000040 e0 13 41 3d 1d 3c ae 3d 37 25 e6 bd 4c 9d 74 bd
       0.047138095 0.085075594 -0.11237567 -0.059720322
000050 f1 a8 e7 3c 35 5b 11 3d 55 ec 2b bd 57 ca c8 3d
       0.0282788 0.035487372 -0.04197343 0.09804218
000060 64 67 01 be 97 c0 ac 3d e7 af b3 bd 31 38 db 3d
       -0.12637097 0.08435171 -0.08773785 0.10704077
000070 3c 0d b7 bc 46 d9 2e 3e de f3 be bd da 43 dc bd
       -0.022345178 0.1707507 -0.09323858 -0.10755129
000080 1a 5d 09 3e c9 89 19 3e bb e2 cf 3d 97 26 b1 3b
       0.13414422 0.14993967 0.10150667 0.0054062116
000090 c3 c2 86 3c f1 3c b4 bd c3 36 0e 3e d8 4d 34 bd
       0.016450291 -0.08800686 0.13888077 -0.04401955
0000a0 83 05 4e 3d 39 ae 29 3e bd e9 2e bd be 6c b2 be
       0.050298225 0.16570367 -0.04270338 -0.3484859
0000b0 56 ff f8 3c 9f fe cc 3d c3 73 8e bd 48 f1 41 be
       0.030395191 0.100095026 -0.069556735 -0.18939698
0000c0 da 58 89 bd b1 9a 5d bc 03 47 05 bd 3a 60 f4 3a
       -0.067064 -0.013525651 -0.032538425 0.00186444
0000d0 d0 fe 09 3e c8 24 ee bc e6 c4 7a 3d b9 66 41 be
       0.1347611 -0.029070273 0.061222933 -0.18886842
0000e0 01 a7 85 bd c4 4d 0c be 01 40 14 bd 64 c8 a5 3c
       -0.06525994 -0.1370154 -0.03619385 0.020237155
0000f0 50 09 25 be 20 88 fb bd 1a 37 b0 bc 21 0d 88 3e
       -0.16116834 -0.12281823 -0.02151065 0.26572517
000100 26 ba 0a 3d 75 b8 a3 3d 4f 4c 80 3b e5 4f e0 3c
       0.03386893 0.07994167 0.0039153467 0.027381847
000110 9c 30 c0 bc b4 a1 b5 3d 2c 28 4e be c4 68 21 3d
       -0.023460679 0.08868733 -0.20132512 0.039406553
000120 bc 1c 8d bd 6c 57 13 3e 26 f2 16 be 36 de 54 bd
       -0.06890246 0.14388818 -0.1474081 -0.05196973
000130 f2 c9 7d 3a 1d 27 08 bd 24 3f 5c bc 92 89 76 bc
       0.0009681276 -0.033240426 -0.013442788 -0.015047448
000140 7d 67 00 3e 5a a1 e3 bd ab 3e 5e be e7 75 ef 3c
       0.12539478 -0.1111476 -0.21703593 0.029231025
000150 93 66 fb bd 40 9d cb 3c ff 74 ae 3c 0e 79 43 be
       -0.12275424 0.024855256 0.021296022 -0.19089147
000160 13 b0 6f bd cd ba 32 bd 3d 6b 42 3d c3 86 ab 3d
       -0.058517527 -0.04363518 0.04746555 0.08375313
000170 91 61 b2 bd 72 58 f4 bd 48 d8 13 bd 5e 4d e5 3c
       -0.087100156 -0.11930932 -0.036094934 0.027990993
000180 26 a7 21 bc 94 e2 b5 bd d2 eb 99 bc ff 07 7b bd
       -0.009866511 -0.08881107 -0.018789206 -0.061286923
000190 76 ef cf 3d 30 85 4a 3e 5c ab 43 3e 19 63 29 3d
       0.101530954 0.1977737 0.19108337 0.041354273
0001a0 0e 2d 1f bd d6 5e 65 3d 68 ab ba 3d ac f3 8d bd
       -0.038861327 0.055998646 0.091147244 -0.06931242
0001b0 8d c2 97 be 0c e2 38 3c 5d 5b 0a 3e b1 fd 94 3d
       -0.29640618 0.0112843625 0.13511415 0.0727495
0001c0 1f 19 d2 3a 96 dd ea 3c 25 b8 81 3d 84 8f 62 be
       0.0016029215 0.028670114 0.06333951 -0.2212506
0001d0 f1 a6 6f bb f7 3d 04 be 66 9c 44 bc 0f 9d 85 3d
       -0.003656801 -0.12914263 -0.012000179 0.06524097
0001e0 64 7a dc 3c e5 70 81 bd 67 f9 9d 3e 4f ac 01 3d
       0.02691383 -0.06320361 0.3085434 0.031658467
0001f0 26 9e 4a bc 10 1e 12 3e 70 91 5e bd c5 76 e5 3d
       -0.012366807 0.1426928 -0.05433792 0.11204294
000200 f0 09 13 be 5f 23 85 be 16 5a 31 3e d9 bd f1 3d
       -0.1435926 -0.26003549 0.17319521 0.11803789
000210 1d 8d b8 3d 5b d1 90 bd a4 b6 2e 3e 16 8f 4d be
       0.0901129 -0.070711814 0.1706186 -0.20074114
000220 f1 37 5c 3d 86 4c 23 be cf e4 af 3d a4 91 d5 3d
       0.053764287 -0.1594716 0.08588564 0.10428169
000230 a5 55 fd 3c 8b d1 6d 3d 9e a7 a2 3d 5c 17 ab 3d
       0.030924628 0.058061164 0.07942127 0.08354065
000240 3b 6c 98 3d 5b 7d e3 bb 19 4e 29 3e 21 a2 c3 3d
       0.07442518 -0.006942434 0.16533698 0.09552408
000250 0e 24 15 bc 6f 84 00 3e 3a f0 1a 3e e5 c5 5f bd
       -0.009102834 0.1255052 0.15130702 -0.054632086
000260 01 61 4c be cf cd b8 bd cf 35 86 bc 4c fe 77 bd
       -0.19958879 -0.0902363 -0.01638308 -0.06054525
000270 be 94 07 3d bd fa b8 bd 2c 75 e0 3d a4 3e ae bc
       0.033100836 -0.090321995 0.10959849 -0.021270104
000280 e7 f8 7e bd 09 35 63 be 59 e9 17 3e 53 c9 b4 3d
       -0.06224909 -0.221882 0.14835109 0.08827462
000290 93 29 85 3d 5f 37 69 3c d7 bc 04 3e b1 44 0c be
       0.0650207 0.014234393 0.12962662 -0.13698079
0002a0 fc 85 de bd 11 dd aa bd d2 ce 2a bc 6a 31 2d 3e
       -0.10865399 -0.08342946 -0.010425286 0.16913381
0002b0 c4 1b 26 3d 6a 21 38 be 74 d9 19 bd 05 c3 05 3d
       0.040553823 -0.17981496 -0.037560895 0.03265669
0002c0 32 f2 77 3d 41 c3 29 be 3f 7f 06 be 7d de 2c bd
       0.06053371 -0.1657839 -0.13134478 -0.04220437
0002d0 90 3b f8 bb 9f 26 0e be 8c f5 ff 3d 99 e4 23 bc
       -0.00757546 -0.1388192 0.12498006 -0.010003232
0002e0 bf 7a a3 bd 36 ba 2b 3e bf 21 c6 bd c4 f7 28 3e
       -0.07982396 0.16770253 -0.09674405 0.16500765
0002f0 dc 61 84 3c 3c 30 70 bd 97 24 87 3d 2d 48 09 be
       0.016159944 -0.05863975 0.06598776 -0.13406439
000300 4f 07 20 3d ad 38 89 bd 67 7a 1a 3e e6 6a 36 3d
       0.03906947 -0.06700263 0.15085755 0.04453554
000310 3c cd 58 bd c3 bc ab 3d 18 3f 31 3e b0 ae 65 be
       -0.0529301 0.08385613 0.17309225 -0.22429919
000320 56 81 57 3d b7 9f f7 3d 44 9f c7 bc 41 9d 5a 3e
       0.05261358 0.1209101 -0.024367936 0.2134905
000330 a2 ff 87 be d5 bd e6 3d 09 56 bd bc f7 a8 e7 3c
       -0.2656222 0.11266676 -0.023112314 0.02827881
000340 5f ae 0e be 17 69 5d bd 86 71 68 3d c9 5b 47 3e
       -0.13933705 -0.0540553 0.05674889 0.19468607
000350 14 1d de 3d 1a 92 36 3e 97 ce 77 bc ce d7 2c bd
       0.1084539 0.17829171 -0.015124938 -0.042197995
000360 98 59 12 be 96 d3 cb 3d 09 d2 15 3d 11 2b 75 bd
       -0.1429199 0.09952466 0.03657726 -0.059855524
000370 35 a6 07 3e c3 68 15 be 37 54 3a 3d 0a e8 3e be
       0.13246997 -0.14590745 0.04549047 -0.18643203
000380 94 a7 8b 3d 29 54 b9 3d 54 ff e1 3b 42 39 23 3e
       0.06819072 0.090492554 0.0068968926 0.15939811
000390 7b 44 b1 3d 76 f3 9b bb ce c1 d3 3d 5d 4a 24 be
       0.0865564 -0.0047592474 0.103397 -0.16043992
0003a0 2b e4 96 be c3 bc 1b bd 17 c5 1c 3e 0a a4 65 3d
       -0.29470953 -0.038021814 0.15309559 0.056064643
0003b0 fc 05 45 3e 71 d6 5a bd b3 d5 18 3d e7 e6 d9 3d
       0.19240564 -0.053427164 0.037313174 0.10639744
0003c0 df 5d 4d be 19 ad 9e 3d 40 84 5a bd 37 ba 9b 3d
       -0.2005534 0.077478595 -0.05334878 0.07603877
0003d0 19 55 0e 3e c7 fa 50 be 78 39 55 bd f3 8a 0b be
       0.1389965 -0.20408164 -0.05205676 -0.13627224
0003e0 14 e6 e0 3c 18 05 e3 3d 30 f3 cc bd b0 9e ac 3c
       0.02745346 0.11084956 -0.10007322 0.021071762
0003f0 9d 50 92 3d 4a 89 19 bd 8c 07 93 3a 66 cb 57 bd
       0.07144282 -0.037484445 0.0011217459 -0.05268421

arith.constant3 f4 [50]
000000 c6 79 99 3d 65 de 14 be 6a 3f ce bb 71 c7 5f bc
       0.074939296 -0.14537962 -0.0062941806 -0.01365839
000010 ba 3b b2 3d 57 fb d3 bc 52 a5 7f be 3a 77 74 bd
       0.08702798 -0.025876684 -0.24965408 -0.059684016
000020 82 bb ce 3d 7c 62 b0 bb 0d 5f 2d 3e 89 10 27 3d
       0.10094358 -0.005382834 0.1693079 0.040787254
000030 b8 db 95 bd 10 b2 d4 bc 13 33 23 3d 50 5d 91 3c
       -0.07317299 -0.025963813 0.03984363 0.01774469
000040 4a b4 aa bd 03 72 76 3d 9a 87 16 3e 8e ef 22 3e
       -0.08335169 0.060167324 0.14700165 0.15911695
000050 d7 9e 12 bc f5 b9 4f bd 31 8a 9b 3d fb b7 76 3c
       -0.008949003 -0.05071445 0.07594717 0.015058513
000060 c6 33 02 3a c6 22 38 3e f9 9b a2 bd 31 bc c4 bc
       0.0004966821 0.17982015 -0.07939906 -0.024015518
000070 83 a5 8e bd 04 5a 9a 3d 58 77 da 3c 8b 35 1e 3c
       -0.069651626 0.075367 0.026668236 0.00965632
000080 f1 5d 27 bd e6 5b 44 bd 02 91 3d 3d 9a f4 88 3b
       -0.040861074 -0.047939204 0.04628087 0.0041795494
000090 58 60 57 3a 99 a9 11 bd 50 61 03 be a6 22 0c 3c
       0.00082159555 -0.03556213 -0.1283009 0.008553183
0000a0 5c 70 0f be 1a bb a6 bd be fb c2 bd db 59 04 be
       -0.14007705 -0.081411555 -0.09520672 -0.12924902
0000b0 34 ba 9c 3d 9a ce 0c be 23 e5 91 3d 03 28 89 3d
       0.07652703 -0.13750687 0.071237825 0.06697085
0000c0 6c ca f6 bc a6 b9 29 3d
       -0.03012582 0.041436814

arith.constant4 f4 [64]
000000 8c ff b0 3d 07 34 7a bd 75 68 66 3d 09 b3 bb 3d
       0.08642492 -0.061084773 0.05625196 0.091650076
000010 8d f0 19 bd 06 8a 44 bd b4 97 22 bd b7 7a 6d bd
       -0.037582923 -0.047983192 -0.039695457 -0.057978358
000020 6b f2 28 3e a1 b7 3f bd de 97 36 3d 2a 0b 91 3d
       0.16498725 -0.04680598 0.044578426 0.070822075
000030 6e 40 26 bd 1b df 68 3d 93 a6 c5 3d 53 fd 67 bd
       -0.04058879 0.056853395 0.09650912 -0.056638073
000040 54 c8 62 3d a8 1f 1b 3e 5b 62 2f be fc 80 06 3d
       0.05536683 0.15148795 -0.17127363 0.032837853
000050 cd a4 04 3e 93 44 84 bc 87 5a a2 bc 3f 8a 3b 3d
       0.12953492 -0.01614598 -0.019818557 0.04578614
000060 9f 82 4d bd 7e aa 3f 3d 24 d1 c2 3d 63 2d f3 bd
       -0.050173398 0.046793453 0.09512547 -0.11873891
000070 c7 49 4c 3d e7 75 79 bc 6e 1d af 3c f6 fb 82 3c
       0.049875047 -0.015225864 0.021376338 0.015989285
000080 86 e0 07 3e b0 43 5e bd 63 ae 8e bc e5 c0 4c bd
       0.13269243 -0.05426377 -0.017417138 -0.049988646
000090 c3 35 9d 3d 53 fc 8b bc 1b 24 03 3e 5e 48 b4 3d
       0.0767627 -0.017088091 0.12806742 0.088028654
0000a0 e9 ac 99 bb 57 e5 03 3d 68 72 68 3d c4 ef 36 3c
       -0.004689802 0.032201137 0.05674973 0.011165563
0000b0 04 eb b0 bc c1 30 86 3c 9e 0f 03 3e fc 61 23 bc
       -0.02159644 0.01638067 0.12798926 -0.009972092
0000c0 c7 01 90 bd 05 51 7e 3d 30 50 06 3c 07 75 15 bc
       -0.07031589 0.062088985 0.008197829 -0.00912214
0000d0 3f 19 aa 3c cd 41 80 3c bd f5 ba 3d 42 6e 04 be
       0.020763991 0.015656376 0.09128902 -0.12932685
0000e0 de fd 63 bc e5 76 61 3d 95 16 a3 3d b6 8b 19 3d
       -0.013915507 0.055045027 0.079632916 0.037486754
0000f0 a3 87 dd 39 d6 7a 57 bd 80 66 04 3e b3 e4 58 3d
       0.00042253462 -0.05260738 0.12929726 0.05295248

arith.constant5 f4 [128]
000000 82 84 54 3d 80 95 b8 bd 29 41 0a 3e a8 50 13 bc
       0.05188418 -0.0901289 0.13501419 -0.008991398
000010 67 de 1a bc df 5d f1 bd a1 67 b1 3d 83 6a 53 ba
       -0.009452439 -0.117854826 0.08662344 -0.0008064883
000020 ae ce a2 bd ea f9 00 3e f8 ed 11 3c 1b 37 ae 3d
       -0.07949577 0.12595335 0.008906834 0.08506604
000030 ab 2c 9a bd 3e 03 d6 3c 0e c4 0e 3e ae 6e 64 3c
       -0.07528051 0.026124593 0.13941976 0.013942404
000040 20 66 41 bc 46 ea 8a 3d 5c e4 91 3d 20 47 07 bd
       -0.011804134 0.06782965 0.07123634 -0.033026814
000050 a2 75 92 3a 97 42 c7 bc 1d 92 b2 bd b9 c2 78 3d
       0.0011173973 -0.024323745 -0.08719275 0.060732577
000060 24 d8 24 bc c3 cd 4c bd a2 a9 20 3c 2f 2b e8 3d
       -0.010061298 -0.050000917 0.009806069 0.113363616
000070 e3 de 74 bd aa ef fd bd e3 34 40 bc 77 9b 1d 3c
       -0.059782874 -0.12399228 -0.011731359 0.009619585
000080 ab 01 e7 ba b3 ec 67 bd f1 32 98 3d f6 85 6f bd
       -0.0017624398 -0.05662222 0.07431591 -0.058477364
000090 31 7e d6 3c dd 39 2f bb b0 90 22 bd bf cb 01 3d
       0.02618322 -0.002673737 -0.039688766 0.031688448
0000a0 ef 78 0f 3e 8c bc 4b 3c 7d 42 b3 3d 7b a1 e9 3d
       0.14010976 0.01243509 0.08752916 0.11407753
0000b0 4c 2e 9b bd f1 5a e8 bd 2a 7c cd 3c 47 4e f6 3d
       -0.0757719 -0.11345471 0.02508362 0.12026649
0000c0 54 ba 7e 3d ec 27 d4 bc 3c 45 37 3d cb 4a c2 3c
       0.062189415 -0.025897942 0.04474376 0.023717305
0000d0 2b 09 72 bd 55 23 82 3b 04 04 21 bc 43 ad 3a 3d
       -0.059090775 0.003971497 -0.009827618 0.04557539
0000e0 da 2b ef 3d 9a 55 29 3d 9b 5c a9 3d 1b 75 ee 3c
       0.11678286 0.0413414 0.08269616 0.029108575
0000f0 b7 50 bb 3d 74 1b 2c bd 16 67 8c 3c d1 30 a6 bb
       0.091462545 -0.04201837 0.017138999 -0.0050717373
000100 ac f8 27 3d d2 6c ed 3d 59 7d 0f bc 05 35 fe 3d
       0.041008636 0.115930215 -0.008757913 0.124124564
000110 e1 1e 0f bd f6 d6 26 3d c7 59 cf 3d 5f 81 f0 bc
       -0.034941558 0.040732346 0.101245455 -0.029358564
000120 a1 ff 97 bc 64 97 73 3d 7d 33 11 3c 89 52 6c bd
       -0.01855451 0.05947055 0.008862373 -0.0576959
000130 05 17 d7 3d 97 e3 3f bb 10 13 45 3e 1c 49 8d bd
       0.105024375 -0.0029279941 0.19245553 -0.0689871
000140 88 16 9c bd d4 cb a2 bc ba 42 de 3d d6 bf cc 3c
       -0.07621485 -0.019872583 0.10852571 0.024993818
000150 11 d4 4d 3d e0 26 9e bd f1 d0 50 3c 23 e0 92 bd
       0.05025107 -0.077222586 0.012745128 -0.07171657
000160 db 39 de bd f2 61 0f bd fc f9 84 3c 6c 90 3f bd
       -0.10850879 -0.035005517 0.016232483 -0.04676859
000170 fa 5e b8 bc d0 09 88 3d f6 57 fe 3d 4a 9d 11 3d
       -0.022506226 0.066424966 0.12419121 0.035550393
000180 7d e2 c2 bd 0e 99 96 3c 26 60 03 3d e9 9a 72 3d
       -0.095158555 0.018383529 0.032074116 0.059229765
000190 de 90 0c bd 9f c8 4d bd 4c 33 50 3d b3 a0 db 3c
       -0.034317844 -0.050240155 0.05083017 0.026810026
0001a0 f7 17 2c 3d fd 11 d8 bd aa a7 65 bd df 4b 15 3e
       0.042015042 -0.10550306 -0.0560681 0.14579724
0001b0 74 ce 08 3d 26 03 13 3d 41 0e 72 3d e4 3b f7 3d
       0.033400014 0.035891674 0.059095625 0.1207197
0001c0 18 e4 de 3c 26 b9 0e bc b2 4e 66 bc 57 57 e8 bc
       0.027208373 -0.008711135 -0.014056848 -0.02836196
0001d0 ac fd 93 3d 42 cf d4 3d ef 29 25 3b 42 ee b3 bd
       0.072261184 0.10391094 0.0025201996 -0.087856784
0001e0 42 47 15 be 3d e0 f5 3d 19 65 d9 3d ca e9 9a 3c
       -0.14577964 0.12005661 0.10614986 0.018910307
0001f0 4c 8f 83 3d ed 3e 0a 3e 99 bb 8a 3d dc 51 82 3d
       0.06423816 0.13500567 0.06774063 0.0636327

sequential_1_1/dense_4_1/BiasAdd/ReadVariableOp f4 [256]
000000 39 e8 0a 3d 5e 65 8e be 0e a2 c7 bc 40 c8 eb bd
       0.03391287 -0.27811712 -0.024369266 -0.11512804
000010 c7 99 4c be 08 6d 89 bd ec 57 cb bd cd 49 3c be
       -0.19980536 -0.06710249 -0.09928879 -0.18387528
000020 b7 e4 4b be 37 99 38 be 06 c7 43 be 6a 40 a0 bd
       -0.19911467 -0.18027197 -0.1911889 -0.07824786
000030 44 37 41 be a2 87 4b be ce 34 af 3d 5e bf fd bd
       -0.18868738 -0.19875959 0.085549936 -0.12390016
000040 7f b8 96 bd df d5 2a bd 0e 56 19 be 11 4d 6d be
       -0.073594086 -0.04170787 -0.14974234 -0.2317393
000050 6f 51 06 be 14 04 e4 3d 88 6b 12 bd ce e5 88 be
       -0.13117002 0.1113359 -0.03574708 -0.26737827
000060 e2 58 4a be 56 24 8f 3d 5b 79 7c bd 7e 1c 1d be
       -0.19760469 0.069893524 -0.06163917 -0.153429
000070 c3 59 9d bd b2 9b 0c 3e 60 f5 3b be c4 c2 20 3d
       -0.07683136 0.13731268 -0.18355322 0.039248243
000080 87 0e 73 be ca 86 6b 3d bb 51 43 ba 33 4d 95 bc
       -0.2373601 0.05750159 -0.00074508385 -0.018225288
000090 31 52 aa bd bc d3 7b be d2 11 a1 bd c6 1f 74 be
       -0.08316458 -0.24592489 -0.07864727 -0.23840246
0000a0 65 91 d6 bd 1a 0d e7 bd 66 7e 03 be 2a 5b ad bd
       -0.104769506 -0.11281796 -0.12841186 -0.08464654
0000b0 be 8a e3 bd f8 9f 10 be 6e ae 04 be 90 8e 08 3b
       -0.11110447 -0.14123523 -0.12957165 0.0020836927
0000c0 7d 62 99 bb 4e 46 3f bd be 9b 01 bd 10 ae 42 be
       -0.00468093 -0.046697907 -0.031642668 -0.19011712
0000d0 0a 89 5e bd e2 61 6b be 48 5f 7a be dc 0e 81 be
       -0.05432991 -0.22986558 -0.2445041 -0.2520665
0000e0 8c a8 5f bd 0e 4a 47 bc 8c 04 4b be 62 aa 98 bc
       -0.0546041 -0.012163652 -0.19825953 -0.018635932
0000f0 09 0a d8 bd f1 cb bc 3d 04 d6 ff 3c d3 cc 0b be
       -0.10548789 0.09218586 0.03122998 -0.13652353
000100 55 f5 44 bd 61 13 9b bc 53 fa b7 3d 6b 7c 57 be
       -0.04808553 -0.018930139 0.089832924 -0.21043555
000110 8e a3 02 be c7 c5 19 be d7 46 fa bd 50 8b 84 3d
       -0.12757704 -0.15016852 -0.12220543 0.06471884
000120 e3 d1 cc bd 39 27 a4 be 14 20 fe bd c8 05 e5 bd
       -0.1000097 -0.32061175 -0.12408462 -0.11182743
000130 d4 1d 84 be 4d de 6d ba 6c 3a 15 3c d3 48 88 bd
       -0.25804007 -0.0009073958 0.009108167 -0.06654515
000140 c1 f1 8b 3d ad b8 15 be 2b 44 bd bd b7 c5 c5 bd
       0.0683322 -0.1462123 -0.09241518 -0.09656852
000150 9c b7 87 be 30 47 8e 3d 6a bf 31 bd c6 4b 0e be
       -0.2650727 0.06947172 -0.043395437 -0.13896093
000160 d8 f2 ef bd d8 95 85 bc 43 22 de bd cf 87 73 be
       -0.11716241 -0.016306803 -0.10846379 -0.23782276
000170 48 f9 b3 bd e9 f2 26 3d b9 5d d6 bd 2a 08 be bd
       -0.08787781 0.040759 -0.10467095 -0.09278901
000180 d4 d2 e3 3c 06 63 c7 bd 5f 5d c8 bd 50 cd ad be
       0.027810492 -0.09735684 -0.09783434 -0.33945704
000190 78 a8 fb bc e1 ae 9d bb aa 02 d8 3d 25 cc 07 be
       -0.03071998 -0.004812107 0.10547383 -0.13261469
0001a0 68 26 24 be 71 86 c0 bb 7a 7f 02 be 4a 00 b7 3b
       -0.16030276 -0.0058754017 -0.12743941 0.0055847513
0001b0 e5 a8 30 be de 6c 17 be 67 0e 36 be d8 e8 57 bd
       -0.17251928 -0.14787623 -0.17778932 -0.05271229
0001c0 6e 11 8a 3c 22 4d fe bd 75 14 81 bd 11 52 11 3d
       0.016854014 -0.12417056 -0.0630273 0.035478655
0001d0 67 19 59 3d 1d 1b ca bd 77 2b d2 bd 8a fb 3d be
       0.05300274 -0.09868453 -0.102621965 -0.18552986
0001e0 d0 5b 03 3e f2 63 b8 bd 16 72 6d 3b 2a 79 30 bd
       0.12827992 -0.09003438 0.003623133 -0.0430843
0001f0 07 4e 7f be c5 d0 c7 bd 68 8e 43 bd e5 df 69 be
       -0.24932109 -0.097566165 -0.04774323 -0.22839315
000200 5f 31 ed bd e5 29 89 bd fe e6 78 bb d9 32 c9 bc
       -0.115816824 -0.06697444 -0.003797948 -0.024560379
000210 77 57 be be 2f a1 14 3d da 55 90 bd 4a 43 3e be
       -0.37176105 0.03628653 -0.07047625 -0.18580356
000220 63 c0 45 3d a4 49 0e be e8 fa 5e bc f9 9d e3 3b
       0.048279177 -0.13895279 -0.013609625 0.006946322
000230 8f 00 bd bd 5f 53 0b be 47 d6 bf bd 93 c8 e8 bd
       -0.09228622 -0.13606022 -0.09367042 -0.113663815
000240 d0 4d b5 37 0f ac 86 3c d9 3a c8 bc 61 7d 26 bd
       2.1613116e-05 0.016439466 -0.024442123 -0.040646914
000250 47 0c 45 bc b4 45 81 bd 2f ed d6 bc 7d 00 32 bd
       -0.012026853 -0.06312123 -0.026236145 -0.043457497
000260 f1 b6 bb bd f1 6d ca bd e8 85 2b be 41 d6 a2 3c
       -0.09165753 -0.09884251 -0.167503 0.019877555
000270 d4 28 88 bd 02 2c 51 bd 9a 70 a6 3c 3c c4 2f be
       -0.06648412 -0.05106736 0.020317364 -0.17164701
000280 b5 9c 1b be c2 59 a4 bd 86 2a 4c bd 6c 65 09 be
       -0.15196498 -0.080249324 -0.04984524 -0.13417596
000290 22 e6 27 3d 74 85 89 3d 73 5b 3b be 99 d3 1d be
       0.040990956 0.06714907 -0.18296604 -0.1541275
0002a0 e1 3e 6d 3d 43 f7 8f bd c0 f7 68 bd fb 0e a4 bc
       0.057921294 -0.07029583 -0.056876898 -0.020026674
0002b0 bf 6b 76 bd fd 2e a5 bd 6b 5b 80 3c 32 e3 c2 bd
       -0.06016135 -0.08065603 0.015668591 -0.0951599
0002c0 51 4a 75 be b6 f6 c2 bd c4 34 28 be d8 1a 51 be
       -0.2395413 -0.095197126 -0.16426378 -0.20420396
0002d0 08 2e 1c be 5a 78 55 bd 52 aa 60 3b 3b 5c 57 bc
       -0.15251935 -0.05211673 0.0034281206 -0.013144548
0002e0 5e 80 13 be d7 0f fd bd f3 5c db bd ff e1 66 3c
       -0.14404437 -0.12356537 -0.10711088 0.014091968
0002f0 cf 53 a6 bd bf 46 68 be 50 bf 1b bb e3 fe e8 bd
       -0.08121454 -0.22683237 -0.0023765154 -0.11376741
000300 aa 6f a0 bd a2 0d fa bd ed e8 cd bd 28 6b 81 bc
       -0.07833798 -0.122096315 -0.10054193 -0.015798166
000310 14 e7 38 be b6 5d 6e 3d 58 25 d8 bd d3 56 1d be
       -0.180569 0.05819484 -0.10553998 -0.15365152
000320 bd a7 45 3d f0 40 09 bd 28 eb 6d 3d 51 a3 76 bd
       0.04825567 -0.033509195 0.05808559 -0.060214344
000330 03 98 27 be e7 e1 cb bd e1 c7 ab bd 6e 08 6a bd
       -0.16366582 -0.09955197 -0.08387733 -0.057136945
000340 1d 63 20 be f6 51 42 3c c9 29 4c bd 3a d3 97 3c
       -0.15662809 0.011860361 -0.049844537 0.018533338
000350 eb 73 13 3e 17 72 a2 be 9e 00 12 be 90 0b 57 3d
       0.14399688 -0.3172767 -0.14258048 0.05250126
000360 bd d6 5a 3d 96 1d 20 3d 3c 5c 52 bd 0c 3d 1f be
       0.053427447 0.039090715 -0.051357493 -0.15550631
000370 54 49 86 bc 6b b3 dd bd 55 08 38 be c6 f4 78 be
       -0.016392387 -0.10825237 -0.17971928 -0.24312124
000380 60 44 62 be fc 09 ad bb fb 97 95 bd 52 43 c0 bd
       -0.22096395 -0.0052807312 -0.073043786 -0.0938784
000390 9f ec c3 bd 76 1c 8f bd 13 29 d8 bd 36 1c a9 3b
       -0.09566616 -0.0698785 -0.10554709 0.0051608337
0003a0 4f 26 f8 bd 15 c5 80 bc 16 43 97 bd 24 1b 86 bd
       -0.12116682 -0.015718976 -0.073858425 -0.065481454
0003b0 38 2c 93 bc 24 c9 1c be fe 50 ba bd 56 68 f5 bd
       -0.017965421 -0.15311104 -0.09097479 -0.11982791
0003c0 30 1c 80 be 01 9e 71 3d fd f2 90 bc 95 32 94 be
       -0.25021505 0.058988575 -0.01769399 -0.2894484
0003d0 3e c1 00 3c 13 5b 33 be e4 2e ac bc 60 58 ff bd
       0.0078585725 -0.17515211 -0.021018453 -0.12468028
0003e0 92 98 aa 3d 14 45 63 bb a6 de 77 bd e1 51 46 be
       0.08329882 -0.0034678625 -0.06051507 -0.19367172
0003f0 52 a8 a9 3a 85 65 2e 3a 42 cc c5 bd b3 a3 1c be
       0.001294384 0.0006652701 -0.096581 -0.15296821

sequential_1_1/dense_4_1/MatMul f4 [256, 258]
000000 1f c2 ae bc 5a 82 fd bd 3d 08 19 3e 90 e3 46 be
       -0.021332799 -0.12378378 0.14944549 -0.19422746
000010 cc 67 88 be 90 20 d1 3c 24 ea 7a be f2 b9 e4 bc
       -0.2664169 0.025528222 -0.2450338 -0.027920697
000020 b6 a0 83 bd 0f 1c 9c bc fd 3e 76 3e cd 63 ac bd
       -0.064271376 -0.019056348 0.24047466 -0.08417473
000030 1e 55 f4 3c 11 82 c7 bd 74 dc ca bd b2 3e ef 3d
       0.029825743 -0.09741605 -0.09905329 0.1168188
000040 22 3a a4 bd ec 36 cf bd 77 ad 67 3d cf a9 60 3d
       -0.080189005 -0.101178974 0.056561913 0.054849442
000050 74 8e 0e 3d 59 a4 9f bd 10 c9 58 bd 9f 0d 3a be
       0.034803823 -0.07795019 -0.052926123 -0.18169259
000060 04 2a 92 bd 9d 50 1d bd 77 64 a9 bc 44 5a 2f be
       -0.0713692 -0.038406957 -0.020677788 -0.17124277
000070 de 12 b4 bd de 3c d2 bd de a8 64 bd ac 36 fc bd
       -0.08792661 -0.10265516 -0.055825107 -0.12315115
000080 59 8c 8b bd 23 73 10 be 75 52 2a 3c 93 da 67 bd
       -0.068138786 -0.14106421 0.010395636 -0.056604933
000090 54 ff 57 bd 8b 3c 55 3d b2 c5 15 bd 41 c7 8e 3d
       -0.052733734 0.05205969 -0.03656549 0.069715984
0000a0 56 7f b4 3d 12 9b 09 bd b5 83 6b bc c5 6e d9 bd
       0.0881335 -0.033595152 -0.014374663 -0.10616831
0000b0 f3 9b c6 3b 21 e6 65 3d c9 85 41 3c 03 de da bc
       0.006061071 0.05612767 0.011811682 -0.026717192
0000c0 fa 3f 7f bc 50 ac 0c 3d 55 9c 0f 3d 99 7d 40 3e
       -0.015579218 0.034344018 0.0350612 0.18797912
0000d0 1c 65 f7 3d 96 02 f7 3d 0d f3 b1 bd 4e d0 66 3d
       0.12079832 0.1206104 -0.086889364 0.056351
0000e0 6b 9e aa 3d 5c 30 83 3d 88 ec 0f be 19 ba 21 be
       0.08330997 0.06405708 -0.14055073 -0.15793647
0000f0 30 e2 50 be 42 6f 34 be d1 76 0a be fd 7c 0a be
       -0.20398784 -0.17620566 -0.13521887 -0.13524242
000100 5a 94 59 bd dd 2e 34 3d d5 46 de 3d 9a ee 8c 3d
       -0.053119995 0.043990005 0.10853354 0.06881447
000110 78 4f 4b bd 38 14 03 3e 18 bb db 3d 11 43 b0 bd
       -0.049636334 0.12800682 0.10729045 -0.08606542
000120 fd ce 9e 3d 20 0e 3a bd 44 00 ec 3c 4c 9a 01 bd
       0.07754324 -0.045423627 0.02880872 -0.03164129
000130 79 1f d4 bd 37 30 03 be 8f c2 42 bc 78 20 fe bc
       -0.103575654 -0.12811361 -0.011887207 -0.031021342
000140 70 b7 54 bb 13 52 25 3d 67 b9 f0 bc 05 1f 97 3c
       -0.003245797 0.040361475 -0.029385282 0.018447408
000150 1d 8e 9b bc 9e 92 1f bd 25 13 9e 3b 27 c1 39 3c
       -0.018988663 -0.038958184 0.0048240595 0.011337555
000160 c6 a9 48 bd 7d 23 b7 bd 9a 4e 46 3a 51 24 52 3d
       -0.048990034 -0.08942316 0.0007564813 0.051304165
000170 a9 04 d3 3c 03 0e d3 3d ed 44 db 3d d3 7f 93 3d
       0.025759058 0.10305407 0.10706506 0.07202115
000180 ba c1 bd 3c 3e 02 c4 3d c2 49 bb 3d d2 77 22 3c
       0.023163665 0.0957074 0.091449276 0.009916263
000190 cd f8 c9 3d 6c d4 b8 3d 98 cf 3a 3d 29 a9 31 bd
       0.09861908 0.09024891 0.045608133 -0.043374214
0001a0 f3 2f a2 3c 2f 81 1f 3d e0 1a c7 3d 30 43 30 3d
       0.019798255 0.03894156 0.09721923 0.043032825
0001b0 b0 ed 70 bd 5a a6 b8 bd 2c b1 4c bd 2a 07 68 bd
       -0.058820426 -0.09016104 -0.04997365 -0.056647457
0001c0 d1 8b ca 3d 45 63 a4 bd 4a 7d 48 3c e9 10 6e bd
       0.09889949 -0.08026747 0.0122369025 -0.058121596
0001d0 11 64 a2 3d a1 bb 15 3d 41 c5 59 3d 19 11 92 bd
       0.079292424 0.03655589 0.05316663 -0.07132167
0001e0 06 6d ba 3d 97 a5 a4 3d 36 83 5a 3c b0 af 11 3c
       0.09102826 0.08039396 0.013336947 0.008891985
0001f0 09 3e 6c 3c 9f 03 b6 bc b1 00 eb 3d 92 68 ca 3d
       0.014419087 -0.022218524 0.11474741 0.098832265
000200 95 d6 25 bb 40 9c a1 bd 79 9b 3b 3c 74 92 8e bd
       -0.0025304903 -0.078911304 0.011450642 -0.069615275
000210 0b 72 7e bc 50 1b 99 3d 64 3a c7 bd b8 84 57 3c
       -0.01553012 0.074759126 -0.09727934 0.013154201
000220 ea 11 a7 3d 50 ad 0c 3d 0a 54 dc 3d 7c 83 92 be
       0.08157714 0.03434497 0.10758217 -0.2861594
000230 44 a0 08 bd ed 29 d1 3d 90 5c 0e 3e b3 bb 4a 3e
       -0.033355966 0.10213075 0.13902497 0.19798164
000240 39 20 85 3d 06 b2 42 3e c2 66 19 3e 76 fa 80 3d
       0.065002866 0.19013223 0.14980605 0.06297772
000250 31 14 e5 3d 71 d7 25 bd 02 06 0c 3e 60 85 d2 3c
       0.11185492 -0.040488664 0.13674167 0.025698364
000260 ff 3f e9 3c e0 fe d7 3d 7e 2d a0 3d 56 b5 e1 bd
       0.028472899 0.105466604 0.07821177 -0.11020915
000270 b3 0f c9 bc 5d 1f bb bd d3 32 03 be c3 04 a0 bd
       -0.024543619 -0.091368414 -0.12812357 -0.07813408
000280 14 d2 8c 3d 32 c8 2b 3d 02 24 9f bd f0 3b f1 3c
       0.06876007 0.041938968 -0.0777054 0.029447526
000290 b1 aa f4 bd 93 9c e0 bd a2 15 04 be d7 72 e3 bd
       -0.11946619 -0.10967364 -0.12898877 -0.11105888
0002a0 01 2b c7 bd 98 c5 7b bd 4d 4d 85 3c d7 d6 93 3d
       -0.09724999 -0.061467737 0.016272211 0.07218712
0002b0 53 8f 4d 3c d4 1d e3 bc ba 6b 17 bd 11 b5 ee bc
       0.012546378 -0.027724184 -0.03696797 -0.029139074
0002c0 79 d6 b6 bd 0b 5d 89 bd 94 54 40 bc 52 bb 51 bd
       -0.08927626 -0.067072 -0.011738915 -0.051204033
0002d0 36 52 1b bd a9 b4 49 bd 04 f3 88 3d bb 34 ad 3d
       -0.0379202 -0.049244557 0.066869766 0.08457323
0002e0 01 b5 c5 3d 59 aa d4 3d 80 12 3a 3e 03 79 b3 3d
       0.096536644 0.10384054 0.1817112 0.087633155
0002f0 72 16 bf 3d 3e 8a d6 3c 0c ba 30 3c 82 89 e6 3d
       0.09330453 0.026188966 0.0107865445 0.11256696
000300 0c b1 22 3b 1d f1 c9 3d d1 71 ed bd 73 12 90 bd
       0.0024824766 0.09860442 -0.115939744 -0.07034769
000310 4d 5c d6 bd ca dd df 39 37 b3 30 3d 3d c4 bd bd
       -0.10466824 0.0004269912 0.043139663 -0.09265945
000320 af 08 2a 3d b1 d1 7f 3d 38 78 04 be b5 80 d9 bd
       0.041512188 0.062455837 -0.12936485 -0.10620252
000330 fe f0 0e be fc cd 24 3d 63 3e ca bd 27 65 41 3d
       -0.13959119 0.040235505 -0.098751806 0.047215607
000340 81 ad 99 3c 8f 19 06 be 09 29 10 bd 5b ca ce bd
       0.01875949 -0.13095687 -0.035195384 -0.1009719
000350 3e 6e 21 3c fd 5b 16 be 3a d0 a3 bd 9c d1 9e bc
       0.009852944 -0.14683528 -0.079987004 -0.019387059
000360 8e fe 18 be e1 26 9d bb 2b a4 f8 bb 83 27 cb bc
       -0.14940855 -0.0047958945 -0.0075879297 -0.024799114
000370 67 7d 01 be c8 a5 c5 bd 24 84 b8 bd e6 64 04 be
       -0.12645493 -0.09650761 -0.09009579 -0.12929115
000380 9b 1b aa bd a4 d2 97 bc 41 69 ca 3c 1f df 01 bd
       -0.083060466 -0.018533058 0.024708392 -0.031706925
000390 a7 34 0a be 32 79 20 bd 52 88 a9 3c 5e 91 fc bd
       -0.13496648 -0.03917808 0.020694885 -0.12332414
0003a0 c2 a4 09 be a9 6a 31 3d 39 d2 60 bd 30 d3 4e 3d
       -0.13441756 0.04331461 -0.054887984 0.050494373
0003b0 f2 09 95 3d 17 4d 7c bd 87 8a 3c 3d ac 22 54 3d
       0.072772875 -0.061596956 0.046030547 0.05179088
0003c0 c5 f5 0e be d5 e6 5a 3c a9 0c 74 bd 19 33 19 be
       -0.13960941 0.013360699 -0.059582386 -0.14960898
0003d0 b7 4e 24 3c e6 f7 d6 3c 7a 8b 09 be b3 1f e6 bd
       0.010028533 0.026241254 -0.13432112 -0.11236515
0003e0 4c c4 5d bd a1 40 c2 bd 5a 1a 7f bd 43 74 c1 bd
       -0.05414228 -0.09484983 -0.06228099 -0.09446003
0003f0 8f 94 ed bd f9 75 10 be a1 a3 a1 bd c1 d7 62 bc
       -0.11600601 -0.14107503 -0.07892538 -0.013845385
